data.pth (torch, 7959 bytes, 6 tensors)

l1.weight f4 [8, 108]
0.65486854 0.5589375 0.08224532 0.5335783 0.49191865 -0.35746676 -0.5757486 0.3191132
0.04558759 0.092117764 1.1358304 0.4470308 -0.063102 -0.19255508 -0.44249463 0.040380694
0.08500421 -0.011056691 -0.15145789 -0.26365006 -0.018282376 -0.19051835 -0.22629915 0.12501477
-0.09580575 0.16032387 0.2751286 0.11615811 0.1818385 0.67321235 0.008385038 -0.17825402
0.48988762 -0.22384006 0.980628 0.20205161 0.7257335 0.3616703 -0.44191143 -0.21077447
-0.44077116 -0.44158906 -0.7213572 -0.17947811 -0.04115806 0.032592196 0.3211994 0.2099176
0.6225273 -0.013855149 -0.60473454 0.36885744 0.2744028 0.08776139 0.48864812 0.8129215
0.53954273 -0.02077894 0.20326844 0.21593687 -0.3619611 -0.08394082 0.15787219 0.39391026
0.5917392 0.27046317 0.12289799 0.3870468 -0.48428592 -0.15295517 0.8409516 -0.09518983
-0.061901964 -0.98015803 0.08082998 -0.029958107 0.030557616 0.72453743 0.15537143 0.72569716
0.73974776 0.057794563 0.40454313 0.24893805 0.021863636 0.14543116 -0.26431206 -0.1516298
0.11329667 0.06318045 0.94114655 0.5050088 1.0733426 -0.04175139 0.06012678 0.0026688948
0.24681164 -0.06015442 0.7312522 0.7306194 -0.37202206 -0.3487083 0.4006446 0.85606545
0.30638316 -0.04418289 0.15784144 -0.5950335 0.27935338 0.90472806 -0.3334934 0.73927176
0.8247658 0.8465511 -0.4810108 -0.561324 -0.3442403 0.35787186 -0.48041564 -0.08177729
-0.64620036 0.61826766 0.9630198 0.36671606 0.29440406 0.6354969 -0.480043 0.55564874
0.3653784 -0.39621812 1.0677783 -0.24474649 0.9333717 0.40183458 0.42796302 0.28116235
0.44524807 0.62616587 -0.1414613 0.8761171 0.79156667 -0.4594739 -0.57501924 0.42043933
0.4075266 -0.33797765 -0.8475554 -0.7952852 -0.79973155 -0.8119699 0.40640336 0.7426236
0.58546925 0.31857195 0.10785103 0.45652068 -0.40297 -0.42259958 -0.2255244 0.82054186
-0.061237957 -0.39905933 0.071866594 -0.40966848 0.3666167 0.86215955 0.06387159 0.5018309
0.72557485 -0.54931235 0.28720108 0.8536862 0.05614759 0.5319881 0.35825956 -0.06901499
0.85735226 -0.015360371 0.70836425 0.3608552 0.51368046 -0.47127816 0.21970177 0.61108315
0.29786295 -0.2067729 0.47998363 -0.4648051 -0.6596856 0.6717822 -0.01782122 0.64287025
0.45157838 -0.2889409 1.0257349 -0.10171888 0.33657008 -0.23547453 -1.1075095 0.30993187
0.46295533 -0.30213815 1.030866 0.5818953 0.43294248 0.9075733 0.32938844 -0.2041083
0.7929846 0.46673086 -0.4063593 0.563732 0.64193636 0.6119285 0.18806455 0.10161326
0.06386727 -0.14594713 0.87296665 -0.07772073 -0.13413937 0.44077227 -0.28666377 0.62476313
0.7129498 -0.019256746 0.12727177 0.62767655 0.7879265 0.48376685 0.65559494 0.069826834
0.05575864 -0.062090572 0.6000095 0.34661055 -0.30764827 0.022831261 -0.20867403 1.3432466
-0.010040049 -0.03827298 -0.032270998 -0.030974725 -0.42044747 -0.07583885 0.8382523 -0.41439268
-0.13265209 0.06572416 0.25357684 -0.041685916 0.6800708 0.41001007 0.10091078 1.0110985
00000000: 77a5 273f 8716 0f3f 3c70 a83d 9698 083f
00000010: c3dc fb3e e205 b7be 4364 13bf ce62 a33e
00000020: 0eba 3a3d 3da8 bc3d e462 913f 39e1 e43e
00000030: 9f3b 81bd 292d 45be a88e e2be 3a66 253d
00000040: b016 ae3d 2027 35bc c717 1bbe 24fd 86be
00000050: ecc4 95bc 3e17 43be f7ba 67be df03 003e
00000060: ce35 c4bd f12b 243e a8dd 8c3e 4ee4 ed3d
00000070: df33 3a3e a557 2c3f 6661 093c 3988 36be
00000080: 8dd2 fa3e 5436 65be 700a 7b3f 9ee6 4e3e
00000090: acc9 393f d92c b93e 3742 e2be 43d5 57be
000000a0: c2ac e1be f617 e2be deaa 38bf 1cc9 37be
000000b0: 5b95 28bd 657f 053d 3f74 a43e a4f4 563e
000000c0: f35d 1f3f b500 63bc e2cf 1abf e2da bc3e
000000d0: 867e 8c3e 3ebc b33d 1630 fa3e a01b 503f
000000e0: 791f 0a3f 9838 aabc 9a25 503e 8e1e 5d3e
000000f0: f752 b9be 2ae9 abbd 3fa9 213e 9bae c93e
00000100: 387c 173f 267a 8a3e f1b1 fb3d 002b c63e
00000110: 53f4 f7be 48a0 1cbe 9b48 573f e3f2 c2bd
00000120: ea8c 7dbd a3eb 7abf 308a a53d b46a f5bc
00000130: f753 fa3c 497b 393f b019 1f3e 4ac7 393f
00000140: 1c60 3d3f feb9 6c3d 4720 cf3e 9ee9 7e3e
00000150: 5e1b b33c e8eb 143e e953 87be d844 1bbe
00000160: 1608 e83d c064 813d fbee 703f 4248 013f
00000170: 4a63 893f 8103 2bbd 8047 763d a0e8 2e3b
00000180: 31bc 7c3e 7b64 76bd 5833 3b3f df09 3b3f
00000190: ad79 bebe e589 b2be 4a21 cd3e 1b27 5b3f
000001a0: 41de 9c3e 1ef9 34bd 30a1 213e 1e54 18bf
000001b0: 6807 8f3e 429c 673f a6bf aabe ea40 3d3f
000001c0: da23 533f 93b7 583f 0c47 f6be eeb2 0fbf
000001d0: 4440 b0be fb3a b73e 0af9 f5be da7a a7bd
000001e0: 636d 25bf ca46 1e3f 7788 763f 35c2 bb3e
000001f0: 21bc 963e edaf 223f 32c8 f5be ff3e 0e3f
00000200: e112 bb3e 1add cabe f6ac 883f d39e 7abe
00000210: 73f1 6e3f 43bd cd3e f81d db3e 83f4 8f3e
00000220: 8ef7 e33e 684c 203f 3bdb 10be 3649 603f
00000230: 1da4 4a3f 2a40 ebbe 7634 13bf d343 d73e
00000240: 54a7 d03e 680b adbe 64f9 58bf d097 4bbf
00000250: 35bb 4cbf 42dd 4fbf 1a14 d03e 951c 3e3f
00000260: 50e1 153f dd1b a33e 00e1 dc3d 14bd e93e
00000270: 1552 cebe f95e d8be deef 66be 080f 523f
00000280: a7d4 7abd 8151 ccbe cb2e 933d 11c0 d1be
00000290: 2fb5 bb3e 7db6 5c3f 1ccf 823d fd77 003f
000002a0: 46bf 393f bc9f 0cbf 050c 933e 2e8b 5a3f
000002b0: 04fb 653d 5f30 083f cc6d b73e bb57 8dbd
000002c0: 707b 5b3f 11aa 7bbc 5c57 353f 03c2 b83e
000002d0: 9080 033f 5f4b f1be 80f9 603e f26f 1c3f
000002e0: 7e81 983e 46bc 53be 6ac0 f53e effa edbe
000002f0: 28e1 28bf ebf9 2b3f cffd 91bc 2593 243f
00000300: 4835 e73e 10f0 93be 484b 833f fd51 d0bd
00000310: ea52 ac3e 3c20 71be dfc2 8dbf 64af 9e3e
00000320: 7b08 ed3e dab1 9abe 6bf3 833f 17f7 143f
00000330: a3aa dd3e b956 683f 9aa5 a83e c401 51be
00000340: 0a01 4b3f 59f7 ee3e 530e d0be be50 103f
00000350: f155 243f 59a7 1c3f fe93 403e 9d1a d03d
00000360: d8cc 823d 2a73 15be be7a 5f3f 0c2c 9fbd
00000370: d55b 09be e7ac e13e 98c5 92be 7af0 1f3f
00000380: e183 363f 53c0 9dbc 8853 023e 69af 203f
00000390: 8db5 493f 4ab0 f73e 12d5 273f 5f01 8f3d
000003a0: 2c63 643d af52 7ebd 399a 193f f076 b13e
000003b0: 1384 9dbe a008 bb3c a5ae 55be 81ef ab3f
000003c0: 057f 24bc 21c4 1cbd 982e 04bd b5be fdbc
000003d0: e444 d7be 6651 9bbd b497 563f 472b d4be
000003e0: f3d5 07be 639a 863d d3d4 813e dabe 2abd
000003f0: 1f19 2e3f d7ec d13e 50aa ce3d ad6b 813f

l1.bias f4 [8]
0.43640316 1.2113487 0.40471277 1.2240798 0.96583176 0.6854682 1.047522 0.29635212
00000000: 3c70 df3e 790d 9b3f 8336 cf3e a6ae 9c3f
00000010: c040 773f d87a 2f3f 3315 863f 77bb 973e

l2.weight f4 [8, 8]
1.6771768 1.5390477 -0.58946735 -0.23725095 -0.24650843 1.68343 -0.2757315 0.80369216
0.020035066 -1.0464777 1.0346216 0.9910742 1.1680158 -0.74276865 2.0576034 0.23661622
-1.168469 0.812042 0.046035595 1.7234733 0.54097587 -1.1545134 1.5672399 0.45622623
1.7554297 -0.49826986 1.2052124 -0.20530988 0.6553776 0.89765954 -0.32432768 1.6162784
1.251411 -1.0693036 1.6139739 0.30689573 0.81550604 -0.23031299 0.075732246 0.6847348
1.7643087 1.1584331 -1.2521912 1.444923 -0.6378899 2.0464075 0.74939805 -0.13718116
0.15883777 -0.082446665 -0.24346906 0.1633796 -0.20306414 -0.133787 0.038976293 -0.1909183
-0.87688786 1.3581932 0.6551104 -0.33643427 1.434738 1.1891278 -0.47287726 -1.5943828
00000000: bbad d63f 84ff c43f 55e7 16bf eaf1 72be
00000010: b56c 7cbe a27a d73f ae2c 8dbe c5be 4d3f
00000020: 9420 a43c fbf2 85bf 7b6e 843f 0ab7 7d3f
00000030: 8b81 953f 1626 3ebf c6af 0340 864b 723e
00000040: 6490 95bf fce1 4f3f d28f 3c3d c69a dc3f
00000050: 657d 0a3f 18c7 93bf 519b c83f 7c96 e93e
00000060: ecb1 e03f 3a1d ffbe 6644 9a3f c13c 52be
00000070: d4c6 273f 04cd 653f 470e a6be 36e2 ce3f
00000080: 3c2e a03f f1de 88bf b296 ce3f 7021 9d3e
00000090: 01c5 503f 2bd7 6bbe 8219 9b3d c84a 2f3f
000000a0: ded4 e13f 8947 943f cd47 a0bf 3df3 b83f
000000b0: c14c 23bf 57f8 0240 8dd8 3f3f 3879 0cbe
000000c0: 5ea6 223e ccd9 a8bd f44f 79be fb4c 273e
000000d0: 0cf0 4fbe 76ff 08be 9ba5 1f3d 1680 43be
000000e0: b97b 60bf 46d9 ad3f 51b5 273f 1d41 acbe
000000f0: 7fa5 b73f 5735 983f f81c f2be bc14 ccbf

l2.bias f4 [8]
0.91126305 1.1718615 0.64192486 -0.2876086 -0.15407744 0.5654905 -0.3693045 0.47841206
00000000: 8948 693f 8fff 953f 3055 243f 6f41 93be
00000010: 7ac6 1dbe fcc3 103f 7b15 bdbe 6df2 f43e

l3.weight f4 [18, 8]
-2.1107256 0.4323193 0.23345357 -0.49007744 -0.24753076 -0.38743117 -0.29516688 0.1993118
0.19935504 -1.7199148 0.24886608 -1.633845 -1.5415857 0.7413757 0.27079907 0.08309521
0.2982414 -1.1698606 -1.3195864 0.6186375 -0.35361603 -0.2730655 -0.25275376 -0.016042734
0.32291642 -1.5966264 0.35553077 -1.2820802 -1.789941 -0.34390542 -0.1802948 0.9099453
0.059861653 -0.28336975 0.49493968 -0.926312 -1.858876 0.62599075 -0.28954092 -1.8887154
0.44529444 -1.9168581 -0.17161027 0.3009206 -1.8591504 0.45558038 0.16306926 -0.75902075
-1.8859936 0.28585538 -0.52222335 0.5462322 0.3671471 -1.7551439 -0.26931003 -0.2317445
0.17082265 -0.063642934 -0.5732524 -0.006258315 -0.19681667 0.4036426 0.2253704 -2.410228
-2.6648138 0.67267805 0.6602931 -1.221624 -0.5410114 0.058530923 -0.03053414 -1.0363322
-0.27469087 -0.21835423 -1.5179149 0.68776745 0.68830746 -1.3177408 -0.310103 -1.1080551
0.11570231 0.714121 0.53145504 -2.454558 -3.3818264 0.030251278 -0.26718327 -2.1969266
-0.3211405 0.06732109 -0.49102986 -0.013785502 0.119242765 -0.31520802 0.16269982 0.06831295
-0.41922402 0.07790937 0.17553689 -1.1760687 -1.4509836 0.54420745 -0.01812196 0.46393204
-0.33291918 -0.49718913 -0.8428453 -0.42542395 -0.7412871 -0.7604918 -0.11291498 -0.623339
-2.4355383 0.32141757 0.5811703 0.010163822 0.557128 -1.6553633 0.14340459 -1.7196913
-0.14442122 -0.37835523 -0.62693787 -0.12165484 -0.25055176 -1.9212253 0.07319282 1.0166912
0.3892995 -1.1473904 -1.4989356 -0.29388583 -1.6555794 0.19164927 -0.08234551 0.7388419
-1.5777309 0.24603263 0.2852585 0.42691284 0.1326233 -0.007849138 -0.049667884 -2.6152008
00000000: 2116 07c0 f558 dd3e 740e 6f3e 6eeb fabe
00000010: b478 7dbe 615d c6be 1d20 97be 6418 4c3e
00000020: ba23 4c3e 2b26 dcbf c0d6 7e3e d521 d1bf
00000030: ae52 c5bf ccca 3d3f 2da6 8a3e d22d aa3d
00000040: 19b3 983e febd 95bf 35e8 a8bf 075f 1e3f
00000050: 290d b5be 3ecf 8bbe f168 81be 0d6c 83bc
00000060: 4d55 a53e 415e ccbf 2108 b63e 341b a4bf
00000070: c91c e5bf 5f14 b0be 339f 38be 2df2 683f
00000080: 7e31 753d d715 91be bc68 fd3e c922 6dbf
00000090: a6ef edbf ee40 203f b53e 94be 6dc1 f1bf
000000a0: a2fd e33e 9b5b f5bf 9aba 2fbe 4412 9a3e
000000b0: a4f8 edbf d541 e93e a1fb 263e 2f4f 42bf
000000c0: 3d68 f1bf a35b 923e 6eb0 05bf e0d5 0b3f
000000d0: b4fa bb3e 8ea8 e0bf 01e3 89be 6e4e 6dbe
000000e0: 22ec 2e3e 3a57 82bd abc0 12bf 8d12 cdbb
000000f0: 4f8a 49be 3eaa ce3e 80c7 663e 2d41 1ac0
00000100: 4f8c 2ac0 a134 2c3f f808 293f 2d5e 9cbf
00000110: b97f 0abf 1fbe 6f3d bc22 fabc 89a6 84bf
00000120: 48a4 8cbe 4098 5fbe 094b c2bf 8711 303f
00000130: eb34 303f bbab a8bf d2c5 9ebe c0d4 8dbf
00000140: 55f5 ec3d a2d0 363f 700d 083f 7a17 1dc0
00000150: d86f 58c0 87d1 f73c 3fcc 88be 729a 0cc0
00000160: 876c a4be a4df 893d 4468 fbbe 96dc 61bc
00000170: 8d35 f43d f262 a1be c89a 263e a9e7 8b3d
00000180: 88a4 d6be f38e 9f3d f1bf 333e 6b89 96bf
00000190: d5b9 b9bf 2e51 0b3f 8174 94bc 8088 ed3e
000001a0: 6274 aabe 938f febe b6c4 57bf 2bd1 d9be
000001b0: fec4 3dbf 97af 42bf f83f e7bd 2593 1fbf
000001c0: dcdf 1bc0 d890 a43e 94c7 143f 2986 263c
000001d0: f19f 0e3f f2e2 d3bf a7d8 123e d81e dcbf
000001e0: 28e3 13be c7b7 c1be 007f 20bf 2c26 f9bd
000001f0: 5248 80be b6ea f5bf 1ee6 953d f022 823f
00000200: 4452 c73e b0dd 92bf 1fdd bfbf 3478 96be
00000210: 07ea d3bf b53f 443e c3a4 a8bd be24 3d3f
00000220: 16f3 c9bf faef 7b3e 670d 923e 5294 da3e
00000230: 67ce 073e ac99 00bc 8d70 4bbd 735f 27c0

l3.bias f4 [18]
-0.112716205 -0.30579922 -0.056265928 -0.062640324 -0.76320416 -0.116108544 -0.14449145 0.2891813
0.5454725 0.14082566 0.9712985 -0.19685204 -0.04044973 -0.53111887 -0.44089338 0.22105634
0.19038294 -0.19263847
00000000: c1d7 e6bd b791 9cbe 1a77 66bd 9249 80bd
00000010: 5961 43bf 51ca edbd 91f5 13be 920f 943e
00000020: 16a4 0b3f 9a34 103e 05a7 783f 9593 49be
00000030: 9eae 25bd 68f7 07bf c7bc e1be 985c 623e
00000040: bff3 423e 0543 45be
